models/logistic_regression/lr_2_1.pt (torch_old, 5428 bytes, 2 tensors)

weight f4 [2, 238]
00000000: 8e83 273e 041b 553e 06f3 123e 15f1 28be
00000010: ca41 7dbe 4309 283e 81d7 3c3d c532 e63c
00000020: 6710 a63a 2715 593d 38cd a53b 0e56 243d
00000030: 8883 c2bd 4dd9 ce3d 924f 5f3d 0aec ad3c
00000040: 2520 37bc bfc4 6bbd e359 aa3d eb53 583e
00000050: 2f75 7c3d b2fc 94bc 009c 353d 446d cebc
00000060: 128e febd 65d8 babc aeba edbd 4180 86bc
00000070: a5d9 aa3d 2d47 aa3c e442 e03d ff1e 113d
00000080: bef1 fe3d 46ed 163d 56ce ab3d 366f 123c
00000090: 8eff f3bb d156 51bd 22cc 88bc 8e88 723d
000000a0: b942 d23d 2343 c4be dd98 593d dca0 383c
000000b0: 1067 003e ff34 dcbc e74d 15be 19af 4abc
000000c0: 1365 f23b 14cf 04be b37d 553d 872b 3abd
000000d0: 9ff4 5abc a147 e5bc 7957 ef3c eb9b 9c3c
000000e0: d383 543d a4ac 123d 3cb6 9f3d 8cda 903d
000000f0: acd6 a53d 1b54 02bd 4593 863d 5303 86bd
00000100: eb42 02bd 7e2d 753b 956d 0b3d 8ae1 7ebd
00000110: 3f87 323d 4656 04bd 40b0 0abe c61b c43c
00000120: befb 9b3d 0b6e f03c 26ef 00be 1e09 b03d
00000130: 3118 91bb e3b2 96bc d53a adbd 9c92 b83a
00000140: 7274 2dbd 4e1c aebd 9674 29bc 01ed 753d
00000150: 75da 4c3c 299f 543d 2ff0 da3c 1c59 713d
00000160: ff6b b23d 1f20 a33d 62f6 373c e161 783c
00000170: 27a5 2d3d 943d 6fbb fb3f cbbb 6ec4 11bc
00000180: 7a46 743b 8ee6 643d 1030 263d b0b2 f13b
00000190: 2f2a d23c e21c 313c a40f b1bc 3fad 393d
000001a0: 4ca7 8ebc bf2b fc3b 7b41 83b9 6d6b 33bc
000001b0: d8df 99bc 41e1 7d3c 8a4e 253d 9c7c 7f3c
000001c0: cca5 12bd 5a93 693c 0f7a 533c 2302 633c
000001d0: 57d1 2b3d 7aab 32bd fc9e 203d 5b66 e63c
000001e0: c60b 83bc 552c d7ba c6d4 33bd 197a f23c
000001f0: 00fa 6b3d c11f febc 306a e7bc adc7 43bd
00000200: abf3 073d 7e28 03bd f0b0 9e3c 8e33 92bd
00000210: 590e 5fbd 3016 32bc 065d 9bba 3682 d2bc
00000220: f6cc 5a3d 62e3 11bd 4186 c53c 10f9 913c
00000230: 81f0 8fbc 7e1c 70bc 9ba3 3f3b b1b9 ec3d
00000240: 2a73 16bc 520d d6bc 038d 883d 6a29 f7bc
00000250: 5830 87bc 1884 c1bc 97af dabd 9774 3a3e
00000260: eaa2 113d 9c30 04bd 9d15 1c3b dd9b 5cbd
00000270: 64cb ff39 fd48 9a3b 4f37 943c 0ba9 1a3d
00000280: 3ca8 72bd af36 a83d ea1d 6c3d 2088 9ebd
00000290: 6d46 8dbc cb34 fd3c 5402 75bc 4951 0abd
000002a0: a403 94bd 1c66 7c3b 8120 153d ecf9 193d
000002b0: 5845 01bd c17d 8c3d 5fa7 a0bc 31a2 7a3d
000002c0: 43d2 5abd 1479 213d a540 e7bd 5822 12bd
000002d0: 07bd 2f3d b7eb 7abd 1356 703c 3ce9 823d
000002e0: 903d e93c a0d8 bcbc db7d 673a c18b 083d
000002f0: b77b 02bc 811e 92bb 5cbd dc3c d3eb 993c
00000300: c8e1 b23c 2ac9 4c3c 3c5c 383d 2017 e33c
00000310: 730e 81bd 523c 2dbc f62d afbc c7c3 453d
00000320: a959 b23c 971b 093d 4580 563d ad2f c0bc
00000330: b8f3 913c 0d40 2f3d be51 d03b 8f9e ad3d
00000340: 0665 0ebd 8b62 053d 21ed c3bc df10 8d3c
00000350: d0c9 633e 2433 383d 8c70 8dbb cc74 6b3c
00000360: df1e 9bbd f15f 9a3c 078c aebc 7962 dabc
00000370: c03b aabd 1768 883d 9604 f4bc fb52 7fbd
00000380: 9c74 143c 1d28 803c ada9 8cbd 7915 98bc
00000390: 445b b53c b266 9d3b 02ec d9bc 4b40 a7bd
000003a0: 751a 513d 9dc8 043d a67d 54bc 4f66 ac3d
000003b0: 8354 8c3d 19d7 a23d 8ae4 3ebe 5969 6dbe
000003c0: d030 d7bd b171 df3d 8058 203e c522 32be
000003d0: c13f 8fbc 4be5 8dbd 7fda adbb 8c14 2dbc
000003e0: e54b afbb 9800 adbc 6564 f93d 159f c0bd
000003f0: cf16 febc 3bf3 5dbb fe2c bd3c f563 db3c
0.16358778 0.20811087 0.14350519 -0.16498215 -0.24732128 0.16409783 0.046103958 0.02810038
0.0012669683 0.052998688 0.0050598644 0.04012113 -0.09497744 0.101000406 0.054519244 0.021230716
-0.011177097 -0.05756068 0.08317926 0.21125762 0.061635192 -0.0181869 0.044338226 -0.025198586
-0.124294415 -0.022808263 -0.11607872 -0.016418578 0.08342294 0.020785892 0.109502584 0.03542995
0.124484524 0.036847375 0.08388965 0.008937648 -0.007446236 -0.051108185 -0.0166989 0.05921226
0.102666326 -0.3833247 0.053124297 0.011268821 0.12539315 -0.02688074 -0.14580499 -0.012370848
0.007397303 -0.12969619 0.05212183 -0.045451667 -0.013363986 -0.027988257 0.029216515 0.019117316
0.05188353 0.035809174 0.0779843 0.070729345 0.08097586 -0.03181849 0.06571058 -0.06543603
-0.0318021 0.0037411149 0.034040052 -0.06222681 0.043586012 -0.03230884 -0.13543797 0.023939025
0.076163754 0.029349348 -0.12591228 0.08595489 -0.0044279327 -0.018395847 -0.08458487 0.0014081779
-0.04234738 -0.085014924 -0.010342738 0.060040478 0.012503256 0.0519096 0.026725857 0.058922872
0.08712005 0.07965111 0.011228176 0.015160055 0.04239383 -0.003650521 -0.0062026954 -0.00889693
0.0037273453 0.055883937 0.04057318 0.0073760375 0.02565488 0.010810109 -0.021613903 0.045331236
-0.017413758 0.0076956446 -0.00025035054 -0.010950905 -0.018783495 0.015495599 0.040358104 0.015593674
-0.035802647 0.014256323 0.012907519 0.01385549 0.04194769 -0.043620564 0.03921412 0.028124979
-0.015996825 -0.001641641 -0.04390409 0.029599236 0.057611465 -0.031021 -0.028248876 -0.047797848
0.033191364 -0.03202104 0.01937148 -0.071387395 -0.054457042 -0.010869548 -0.0011853285 -0.025696855
0.053418122 -0.03561724 0.024111869 0.017818958 -0.017570736 -0.014655231 0.0029241804 0.11558855
-0.009182731 -0.026129398 0.06667521 -0.030171115 -0.016502544 -0.023622558 -0.10678022 0.18208538
0.035555758 -0.03227292 0.0023816593 -0.05385958 0.00048788928 0.004708408 0.01809278 0.03775887
-0.059242472 0.08213555 0.057645716 -0.077408075 -0.017245496 0.030908963 -0.014954168 -0.033768926
-0.07227257 0.003851301 0.03640795 0.03759186 -0.031560272 0.06859923 -0.019611059 0.061189834
-0.053423177 0.03942211 -0.11291627 -0.035677284 0.04290488 -0.06125995 0.014668959 0.06392142
0.028471738 -0.023052514 0.00088307046 0.033336405 -0.007964066 -0.0044592028 0.026945762 0.018789208
0.021836177 0.012499133 0.045009837 0.027720988 -0.06301584 -0.0105734635 -0.02138422 0.04828241
0.021771269 0.033473577 0.05236842 -0.023460234 0.01781641 0.042785693 0.0063574007 0.08477508
-0.034764312 0.03256468 -0.023916783 0.017219959 0.22244954 0.044970647 -0.004316395 0.014371108
-0.075742476 0.018844577 -0.021307005 -0.026658284 -0.08312178 0.066604786 -0.029787343 -0.062334996
0.009061005 0.015644128 -0.068683006 -0.018564926 0.022138245 0.004803502 -0.026601795 -0.0816656
0.051050622 0.032417882 -0.01296941 0.08417951 0.06852057 0.07951183 -0.18641868 -0.23184718
-0.10507357 0.10910357 0.1565876 -0.17396076 -0.017486455 -0.069285 -0.005305588 -0.010563981
-0.0053496235 -0.021118447 0.12177352 -0.094053425 -0.031016735 -0.00338669 0.023092743 0.026781062

bias f4 [2]
00000000: 060c 2640 0208 28c0
2.5944839 -2.6254888
